…
2  Covid-19_dataset/test/Normal/0110.jpeg    0.0
3  Covid-19_dataset/test/Normal/0106.jpeg    0.0
4  Covid-19_dataset/test/Normal/0121.jpeg    0.0
shape = (20, 2)
Found 140 validated image filenames.
Found 20 validated image filenames.
Model: "model"
_________________________________________________________________
 Layer (type)                Output Shape              Param #   
=================================================================
 input_image (InputLayer)    [(None, 228, 228, 3)]     0         
                                                                 
 conv2d (Conv2D)             (None, 226, 226, 32)      896       
                                                                 
 conv2d_1 (Conv2D)           (None, 226, 226, 32)      9248      
                                                                 
 max_pooling2d (MaxPooling2D  (None, 113, 113, 32)     0         
 )                                                               
                                                                 
 dropout (Dropout)           (None, 113, 113, 32)      0         
                                                                 
 conv2d_2 (Conv2D)           (None, 113, 113, 16)      4624      
                                                                 
 conv2d_3 (Conv2D)           (None, 113, 113, 16)      2320      
                                                                 
 max_pooling2d_1 (MaxPooling  (None, 56, 56, 16)       0         
 2D)                                                             
                                                                 
 dropout_1 (Dropout)         (None, 56, 56, 16)        0         
                                                                 
 conv2d_4 (Conv2D)           (None, 56, 56, 8)         1160      
                                                                 
 conv2d_5 (Conv2D)           (None, 56, 56, 8)         584       
                                                                 
 max_pooling2d_2 (MaxPooling  (None, 28, 28, 8)        0         
 2D)                                                             
                                                                 
 flatten (Flatten)           (None, 6272)              0         
                                                                 
 dense (Dense)               (None, 128)               802944    
                                                                 
 dense_1 (Dense)             (None, 1)                 129       
                                                                 
=================================================================
Total params: 821,905
Trainable params: 821,905
Non-trainable params: 0
_________________________________________________________________
None
2024-02-29 23:01:10.587905: I tensorflow/core/common_runtime/executor.cc:1197] [/device:CPU:0] (DEBUG INFO) Executor start aborting (this does not indicate an error and you can ignore this message): INVALID_ARGUMENT: You must feed a value for placeholder tensor 'Placeholder/_0' with dtype int32
…
